{"class_name": "Model", "config": {"name": "model_4", "layers": [{"name": "input_1", "class_name": "InputLayer", "config": {"batch_input_shape": [null, 82, 64, 32, 1], "dtype": "float32", "sparse": false, "name": "input_1"}, "inbound_nodes": []}, {"name": "time_distributed_1", "class_name": "TimeDistributed", "config": {"name": "time_distributed_1", "trainable": true, "layer": {"class_name": "Conv2D", "config": {"name": "conv2d_1", "trainable": true, "filters": 64, "kernel_size": [1, 1], "strides": [1, 1], "padding": "valid", "data_format": "channels_last", "dilation_rate": [1, 1], "activation": "relu", "use_bias": true, "kernel_initializer": {"class_name": "VarianceScaling", "config": {"scale": 1.0, "mode": "fan_avg", "distribution": "uniform", "seed": null}}, "bias_initializer": {"class_name": "Zeros", "config": {}}, "kernel_regularizer": null, "bias_regularizer": null, "activity_regularizer": null, "kernel_constraint": null, "bias_constraint": null}}}, "inbound_nodes": [[["input_1", 0, 0, {}]]]}, {"name": "time_distributed_2", "class_name": "TimeDistributed", "config": {"name": "time_distributed_2", "trainable": true, "layer": {"class_name": "BatchNormalization", "config": {"name": "batch_normalization_1", "trainable": true, "axis": -1, "momentum": 0.99, "epsilon": 0.001, "center": true, "scale": true, "beta_initializer": {"class_name": "Zeros", "config": {}}, "gamma_initializer": {"class_name": "Ones", "config": {}}, "moving_mean_initializer": {"class_name": "Zeros", "config": {}}, "moving_variance_initializer": {"class_name": "Ones", "config": {}}, "beta_regularizer": null, "gamma_regularizer": null, "beta_constraint": null, "gamma_constraint": null}}}, "inbound_nodes": [[["time_distributed_1", 0, 0, {}]]]}, {"name": "time_distributed_3", "class_name": "TimeDistributed", "config": {"name": "time_distributed_3", "trainable": true, "layer": {"class_name": "Conv2D", "config": {"name": "conv2d_2", "trainable": true, "filters": 64, "kernel_size": [1, 1], "strides": [1, 1], "padding": "valid", "data_format": "channels_last", "dilation_rate": [1, 1], "activation": "relu", "use_bias": true, "kernel_initializer": {"class_name": "VarianceScaling", "config": {"scale": 1.0, "mode": "fan_avg", "distribution": "uniform", "seed": null}}, "bias_initializer": {"class_name": "Zeros", "config": {}}, "kernel_regularizer": null, "bias_regularizer": null, "activity_regularizer": null, "kernel_constraint": null, "bias_constraint": null}}}, "inbound_nodes": [[["time_distributed_2", 0, 0, {}]]]}, {"name": "time_distributed_9", "class_name": "TimeDistributed", "config": {"name": "time_distributed_9", "trainable": true, "layer": {"class_name": "BatchNormalization", "config": {"name": "batch_normalization_4", "trainable": true, "axis": -1, "momentum": 0.99, "epsilon": 0.001, "center": true, "scale": true, "beta_initializer": {"class_name": "Zeros", "config": {}}, "gamma_initializer": {"class_name": "Ones", "config": {}}, "moving_mean_initializer": {"class_name": "Zeros", "config": {}}, "moving_variance_initializer": {"class_name": "Ones", "config": {}}, "beta_regularizer": null, "gamma_regularizer": null, "beta_constraint": null, "gamma_constraint": null}}}, "inbound_nodes": [[["time_distributed_3", 0, 0, {}]]]}, {"name": "time_distributed_10", "class_name": "TimeDistributed", "config": {"name": "time_distributed_10", "trainable": true, "layer": {"class_name": "MaxPooling2D", "config": {"name": "max_pooling2d_2", "trainable": true, "pool_size": [2, 2], "padding": "valid", "strides": [2, 2], "data_format": "channels_last"}}}, "inbound_nodes": [[["time_distributed_9", 0, 0, {}]]]}, {"name": "time_distributed_11", "class_name": "TimeDistributed", "config": {"name": "time_distributed_11", "trainable": true, "layer": {"class_name": "Conv2D", "config": {"name": "conv2d_5", "trainable": true, "filters": 256, "kernel_size": [1, 1], "strides": [1, 1], "padding": "valid", "data_format": "channels_last", "dilation_rate": [1, 1], "activation": "relu", "use_bias": true, "kernel_initializer": {"class_name": "VarianceScaling", "config": {"scale": 1.0, "mode": "fan_avg", "distribution": "uniform", "seed": null}}, "bias_initializer": {"class_name": "Zeros", "config": {}}, "kernel_regularizer": null, "bias_regularizer": null, "activity_regularizer": null, "kernel_constraint": null, "bias_constraint": null}}}, "inbound_nodes": [[["time_distributed_10", 0, 0, {}]]]}, {"name": "time_distributed_13", "class_name": "TimeDistributed", "config": {"name": "time_distributed_13", "trainable": true, "layer": {"class_name": "Conv2D", "config": {"name": "conv2d_6", "trainable": true, "filters": 256, "kernel_size": [1, 1], "strides": [1, 1], "padding": "valid", "data_format": "channels_last", "dilation_rate": [1, 1], "activation": "relu", "use_bias": true, "kernel_initializer": {"class_name": "VarianceScaling", "config": {"scale": 1.0, "mode": "fan_avg", "distribution": "uniform", "seed": null}}, "bias_initializer": {"class_name": "Zeros", "config": {}}, "kernel_regularizer": null, "bias_regularizer": null, "activity_regularizer": null, "kernel_constraint": null, "bias_constraint": null}}}, "inbound_nodes": [[["time_distributed_11", 0, 0, {}]]]}, {"name": "time_distributed_14", "class_name": "TimeDistributed", "config": {"name": "time_distributed_14", "trainable": true, "layer": {"class_name": "BatchNormalization", "config": {"name": "batch_normalization_6", "trainable": true, "axis": -1, "momentum": 0.99, "epsilon": 0.001, "center": true, "scale": true, "beta_initializer": {"class_name": "Zeros", "config": {}}, "gamma_initializer": {"class_name": "Ones", "config": {}}, "moving_mean_initializer": {"class_name": "Zeros", "config": {}}, "moving_variance_initializer": {"class_name": "Ones", "config": {}}, "beta_regularizer": null, "gamma_regularizer": null, "beta_constraint": null, "gamma_constraint": null}}}, "inbound_nodes": [[["time_distributed_13", 0, 0, {}]]]}, {"name": "time_distributed_15", "class_name": "TimeDistributed", "config": {"name": "time_distributed_15", "trainable": true, "layer": {"class_name": "MaxPooling2D", "config": {"name": "max_pooling2d_3", "trainable": true, "pool_size": [2, 2], "padding": "valid", "strides": [2, 2], "data_format": "channels_last"}}}, "inbound_nodes": [[["time_distributed_14", 0, 0, {}]]]}, {"name": "time_distributed_16", "class_name": "TimeDistributed", "config": {"name": "time_distributed_16", "trainable": true, "layer": {"class_name": "Flatten", "config": {"name": "flatten_1", "trainable": true, "data_format": "channels_last"}}}, "inbound_nodes": [[["time_distributed_15", 0, 0, {}]]]}, {"name": "time_distributed_17", "class_name": "TimeDistributed", "config": {"name": "time_distributed_17", "trainable": true, "layer": {"class_name": "Dense", "config": {"name": "dense_1", "trainable": true, "units": 24, "activation": "linear", "use_bias": true, "kernel_initializer": {"class_name": "VarianceScaling", "config": {"scale": 1.0, "mode": "fan_avg", "distribution": "uniform", "seed": null}}, "bias_initializer": {"class_name": "Zeros", "config": {}}, "kernel_regularizer": null, "bias_regularizer": null, "activity_regularizer": null, "kernel_constraint": null, "bias_constraint": null}}}, "inbound_nodes": [[["time_distributed_16", 0, 0, {}]]]}, {"name": "bidirectional_1", "class_name": "Bidirectional", "config": {"name": "bidirectional_1", "trainable": true, "layer": {"class_name": "LSTM", "config": {"name": "lstm_1", "trainable": true, "return_sequences": true, "return_state": false, "go_backwards": false, "stateful": false, "unroll": false, "units": 128, "activation": "tanh", "recurrent_activation": "hard_sigmoid", "use_bias": true, "kernel_initializer": {"class_name": "VarianceScaling", "config": {"scale": 1.0, "mode": "fan_avg", "distribution": "uniform", "seed": null}}, "recurrent_initializer": {"class_name": "Orthogonal", "config": {"gain": 1.0, "seed": null}}, "bias_initializer": {"class_name": "Zeros", "config": {}}, "unit_forget_bias": true, "kernel_regularizer": null, "recurrent_regularizer": null, "bias_regularizer": null, "activity_regularizer": null, "kernel_constraint": null, "recurrent_constraint": null, "bias_constraint": null, "dropout": 0.1, "recurrent_dropout": 0.0, "implementation": 1}}, "merge_mode": "concat"}, "inbound_nodes": [[["time_distributed_17", 0, 0, {}]]]}, {"name": "bidirectional_2", "class_name": "Bidirectional", "config": {"name": "bidirectional_2", "trainable": true, "layer": {"class_name": "LSTM", "config": {"name": "lstm_2", "trainable": true, "return_sequences": true, "return_state": false, "go_backwards": false, "stateful": false, "unroll": false, "units": 128, "activation": "tanh", "recurrent_activation": "hard_sigmoid", "use_bias": true, "kernel_initializer": {"class_name": "VarianceScaling", "config": {"scale": 1.0, "mode": "fan_avg", "distribution": "uniform", "seed": null}}, "recurrent_initializer": {"class_name": "Orthogonal", "config": {"gain": 1.0, "seed": null}}, "bias_initializer": {"class_name": "Zeros", "config": {}}, "unit_forget_bias": true, "kernel_regularizer": null, "recurrent_regularizer": null, "bias_regularizer": null, "activity_regularizer": null, "kernel_constraint": null, "recurrent_constraint": null, "bias_constraint": null, "dropout": 0.1, "recurrent_dropout": 0.0, "implementation": 1}}, "merge_mode": "concat"}, "inbound_nodes": [[["bidirectional_1", 0, 0, {}]]]}, {"name": "bidirectional_3", "class_name": "Bidirectional", "config": {"name": "bidirectional_3", "trainable": true, "layer": {"class_name": "LSTM", "config": {"name": "lstm_3", "trainable": true, "return_sequences": true, "return_state": false, "go_backwards": false, "stateful": false, "unroll": false, "units": 128, "activation": "tanh", "recurrent_activation": "hard_sigmoid", "use_bias": true, "kernel_initializer": {"class_name": "VarianceScaling", "config": {"scale": 1.0, "mode": "fan_avg", "distribution": "uniform", "seed": null}}, "recurrent_initializer": {"class_name": "Orthogonal", "config": {"gain": 1.0, "seed": null}}, "bias_initializer": {"class_name": "Zeros", "config": {}}, "unit_forget_bias": true, "kernel_regularizer": null, "recurrent_regularizer": null, "bias_regularizer": null, "activity_regularizer": null, "kernel_constraint": null, "recurrent_constraint": null, "bias_constraint": null, "dropout": 0.1, "recurrent_dropout": 0.0, "implementation": 1}}, "merge_mode": "concat"}, "inbound_nodes": [[["bidirectional_2", 0, 0, {}]]]}, {"name": "input_length", "class_name": "InputLayer", "config": {"batch_input_shape": [null, 1], "dtype": "float32", "sparse": false, "name": "input_length"}, "inbound_nodes": []}, {"name": "CTCdecode", "class_name": "Lambda", "config": {"name": "CTCdecode", "trainable": true, "function": ["4wEAAAAAAAAABQAAAAgAAABLAAAAc1QAAAB8AFwCfQJ9A3wBfQR0AGoBgwBkAWsCcxx0AoIBdABq\nA3QAagR8AnQFagZ8A4MBfARkAhkAfARkAxkAfARkBBkAZAWNBWQGGQBkBhkAZAdkCI0CUwApCeEG\nAQAACiAgICAgICAgQ29tcGxldGUgQ1RDIGRlY29kaW5nIHVzaW5nIEtlcmFzIChmdW5jdGlvbiBL\nLmN0Y19kZWNvZGUpCiAgICAgICAgOnBhcmFtIGFyZ3M6IAogICAgICAgICAgICB5X3ByZWQsIGlu\ncHV0X2xlbmd0aAogICAgICAgIDpwYXJhbSBhcmd1bWVudHM6CiAgICAgICAgICAgIGdyZWVkeSwg\nYmVhbV93aWR0aCwgdG9wX3BhdGhzCiAgICAgICAgOnJldHVybjogCiAgICAgICAgICAgIEsuY3Rj\nX2RlY29kZSB3aXRoIGR0eXBlPSdmbG9hdDMyJwogICAgICAgINoKdGVuc29yZmxvd9oGZ3JlZWR5\n2gpiZWFtX3dpZHRo2gl0b3BfcGF0aHMpA3IDAAAAcgQAAAByBQAAAOkAAAAA2gdmbG9hdDMyKQHa\nBWR0eXBlKQfaAUvaB2JhY2tlbmTaDkFzc2VydGlvbkVycm9y2gRjYXN02gpjdGNfZGVjb2Rl2gJ0\nZtoHc3F1ZWV6ZSkF2gRhcmdz2glhcmd1bWVudHPaBnlfcHJlZNoMaW5wdXRfbGVuZ3Ro2glteV9w\nYXJhbXOpAHIVAAAA+iUvVXNlcnMvZGV0aC9EZXNrdG9wL2FydmluL0NUQ01vZGVsLnB52iFjdGNf\nY29tcGxldGVfZGVjb2RpbmdfbGFtYmRhX2Z1bmNUAwAAcwgAAAAADggBBAIQAg==\n", null, null], "function_type": "lambda", "output_shape": [null, null], "output_shape_type": "raw", "arguments": {"greedy": true, "beam_width": 100, "top_paths": 1}}, "inbound_nodes": [[["bidirectional_3", 0, 0, {}], ["input_length", 0, 0, {}]]]}], "input_layers": [["input_1", 0, 0], ["input_length", 0, 0]], "output_layers": [["CTCdecode", 0, 0]]}, "keras_version": "2.1.6", "backend": "tensorflow"}